Layer (type)                 Output Shape              Param #   
=================================================================
conv2d_1 (Conv2D)            (None, 46, 46, 32)        320       
_________________________________________________________________
dropout_1 (Dropout)          (None, 46, 46, 32)        0         
_________________________________________________________________
conv2d_2 (Conv2D)            (None, 44, 44, 32)        9248      
_________________________________________________________________
dropout_2 (Dropout)          (None, 44, 44, 32)        0         
_________________________________________________________________
max_pooling2d_1 (MaxPooling2 (None, 22, 22, 32)        0         
_________________________________________________________________
conv2d_3 (Conv2D)            (None, 22, 22, 64)        18496     
_________________________________________________________________
dropout_3 (Dropout)          (None, 22, 22, 64)        0         
_________________________________________________________________
conv2d_4 (Conv2D)            (None, 22, 22, 64)        36928     
_________________________________________________________________
max_pooling2d_2 (MaxPooling2 (None, 11, 11, 64)        0         
_________________________________________________________________
dropout_4 (Dropout)          (None, 11, 11, 64)        0         
_________________________________________________________________
conv2d_5 (Conv2D)            (None, 11, 11, 128)       73856     
_________________________________________________________________
dropout_5 (Dropout)          (None, 11, 11, 128)       0         
_________________________________________________________________
conv2d_6 (Conv2D)            (None, 11, 11, 128)       147584    
_________________________________________________________________
max_pooling2d_3 (MaxPooling2 (None, 5, 5, 128)         0         
_________________________________________________________________
dropout_6 (Dropout)          (None, 5, 5, 128)         0         
_________________________________________________________________
conv2d_7 (Conv2D)            (None, 5, 5, 256)         295168    
_________________________________________________________________
dropout_7 (Dropout)          (None, 5, 5, 256)         0         
_________________________________________________________________
conv2d_8 (Conv2D)            (None, 5, 5, 256)         590080    
_________________________________________________________________
max_pooling2d_4 (MaxPooling2 (None, 2, 2, 256)         0         
_________________________________________________________________
dropout_8 (Dropout)          (None, 2, 2, 256)         0         
_________________________________________________________________
flatten_1 (Flatten)          (None, 1024)              0         
_________________________________________________________________
dropout_9 (Dropout)          (None, 1024)              0         
_________________________________________________________________
dense_1 (Dense)              (None, 1024)              1049600   
_________________________________________________________________
dropout_10 (Dropout)         (None, 1024)              0         
_________________________________________________________________
dense_2 (Dense)              (None, 7)                 7175      
=================================================================
Total params: 2,228,455
Trainable params: 2,228,455
Non-trainable params: 0
_________________________________________________________________
