Layer (type)                 Output Shape              Param #   
=================================================================
dense_1 (Dense)              (None, 200)               461000    
_________________________________________________________________
dropout_1 (Dropout)          (None, 200)               0         
_________________________________________________________________
dense_2 (Dense)              (None, 500)               100500    
_________________________________________________________________
dropout_2 (Dropout)          (None, 500)               0         
_________________________________________________________________
dense_3 (Dense)              (None, 7)                 3507      
=================================================================
Total params: 565,007
Trainable params: 565,007
Non-trainable params: 0
_________________________________________________________________
Start compile
Epoch 1/50
26986/26986 [==============================] - 0s - loss: 1.8657 - acc: 0.2311     
Epoch 2/50
26986/26986 [==============================] - 0s - loss: 1.7791 - acc: 0.2689     
…
