…
WARNING (theano.sandbox.cuda): The cuda backend is deprecated and will be removed in the next release (v0.10).  Please switch to the gpuarray backend. You can get more information about how to switch at this URL:
 https://github.com/Theano/Theano/wiki/Converting-to-the-new-gpu-back-end%28gpuarray%29

Using gpu device 0: GeForce GTX 660M (CNMeM is disabled, cuDNN not available)
data loaded
_________________________________________________________________
Layer (type)                 Output Shape              Param #   
=================================================================
conv2d_1 (Conv2D)            (None, 46, 46, 16)        160       
_________________________________________________________________
max_pooling2d_1 (MaxPooling2 (None, 23, 23, 16)        0         
_________________________________________________________________
dropout_1 (Dropout)          (None, 23, 23, 16)        0         
_________________________________________________________________
conv2d_2 (Conv2D)            (None, 21, 21, 32)        4640      
_________________________________________________________________
max_pooling2d_2 (MaxPooling2 (None, 10, 10, 32)        0         
_________________________________________________________________
dropout_2 (Dropout)          (None, 10, 10, 32)        0         
_________________________________________________________________
flatten_1 (Flatten)          (None, 3200)              0         
_________________________________________________________________
dense_1 (Dense)              (None, 400)               1280400   
_________________________________________________________________
dense_2 (Dense)              (None, 7)                 2807      
=================================================================
Total params: 1,288,007
Trainable params: 1,288,007
Non-trainable params: 0
_________________________________________________________________
Created Model
Start compile
Epoch 1/10
2017-05-02 00:20:41.239678: W tensorflow/core/platform/cpu_feature_guard.cc:45] The TensorFlow library wasn't compiled to use SSE4.1 instructions, but these are available on your machine and could speed up CPU computations.
…
